…
	Dataset enlarge ratio: 100
	Batch size per gpu: 1
	World size (gpu number): 4
	Require iter number per epoch: 12125
	Total epochs: 13; iters: 150000.
2025-11-22 16:44:07,361 INFO: Dataset Dataset_PairedImage - ValSet is created.
2025-11-22 16:44:07,362 INFO: Number of val images/folders in ValSet: 15
2025-11-22 16:44:07,362 INFO: Set pretrain_network_g to /data/lgl/codes/MambaIR/realDenoising/experiments/SparseMaIRUNet_small_LOLv1/models/net_g_76000.pth
2025-11-22 16:44:09,043 INFO: Network: DistributedDataParallel - SparseMaIRUNet, with parameters: 31,996,848
2025-11-22 16:44:09,043 INFO: SparseMaIRUNet(
  (conv_first): Conv2d(3, 48, kernel_size=(3, 3), stride=(1, 1), padding=(1, 1))
  (patch_embed): PatchEmbed(
    (norm): LayerNorm((48,), eps=1e-05, elementwise_affine=True)
  )
  (encoder_level1): ModuleList(
    (0-1): 2 x RMB(
      (ln_1): LayerNorm((48,), eps=1e-05, elementwise_affine=True)
      (self_attention): VMM(
        (in_proj): Linear(in_features=48, out_features=192, bias=False)
        (conv2d): Conv2d(96, 96, kernel_size=(3, 3), stride=(1, 1), padding=(1, 1), groups=96)
        (act): SiLU()
        (x_proj): Linear(in_features=96, out_features=35, bias=False)
        (dt_proj): Linear(in_features=3, out_features=96, bias=True)
        (out_norm): LayerNorm((96,), eps=1e-05, elementwise_affine=True)
        (out_proj): Linear(in_features=96, out_features=48, bias=False)
        (relu): ReLU()
        (att_ca): Conv2d(96, 192, kernel_size=(1, 1), stride=(1, 1), bias=False)
      )
      (drop_path): DropPath()
      (conv_blk): MlpFromMaIR(
        (fc1): Linear(in_features=48, out_features=72, bias=True)
        (act): GELU(approximate='none')
        (fc2): Linear(in_features=72, out_features=48, bias=True)
      )
      (ln_2): LayerNorm((48,), eps=1e-05, elementwise_affine=True)
    )
  )
  (down1_2): Downsample(
    (body): Sequential(
      (0): Conv2d(48, 24, kernel_size=(3, 3), stride=(1, 1), padding=(1, 1), bias=False)
      (1): PixelUnshuffle(downscale_factor=2)
    )
  )
  (encoder_level2): ModuleList(
    (0-3): 4 x RMB(
      (ln_1): LayerNorm((96,), eps=1e-05, elementwise_affine=True)
      (self_attention): VMM(
        (in_proj): Linear(in_features=96, out_features=384, bias=False)
        (conv2d): Conv2d(192, 192, kernel_size=(3, 3), stride=(1, 1), padding=(1, 1), groups=192)
        (act): SiLU()
        (x_proj): Linear(in_features=192, out_features=38, bias=False)
        (dt_proj): Linear(in_features=6, out_features=192, bias=True)
        (out_norm): LayerNorm((192,), eps=1e-05, elementwise_affine=True)
        (out_proj): Linear(in_features=192, out_features=96, bias=False)
        (relu): ReLU()
        (att_ca): Conv2d(192, 384, kernel_size=(1, 1), stride=(1, 1), bias=False)
      )
      (drop_path): DropPath()
      (conv_blk): MlpFromMaIR(
        (fc1): Linear(in_features=96, out_features=144, bias=True)
        (act): GELU(approximate='none')
        (fc2): Linear(in_features=144, out_features=96, bias=True)
      )
      (ln_2): LayerNorm((96,), eps=1e-05, elementwise_affine=True)
    )
  )
  (down2_3): Downsample(
    (body): Sequential(
      (0): Conv2d(96, 48, kernel_size=(3, 3), stride=(1, 1), padding=(1, 1), bias=False)
      (1): PixelUnshuffle(downscale_factor=2)
    )
  )
  (encoder_level3): ModuleList(
    (0-3): 4 x RMB(
      (ln_1): LayerNorm((192,), eps=1e-05, elementwise_affine=True)
      (self_attention): VMM(
        (in_proj): Linear(in_features=192, out_features=768, bias=False)
        (conv2d): Conv2d(384, 384, kernel_size=(3, 3), stride=(1, 1), padding=(1, 1), groups=384)
        (act): SiLU()
        (x_proj): Linear(in_features=384, out_features=44, bias=False)
        (dt_proj): Linear(in_features=12, out_features=384, bias=True)
        (out_norm): LayerNorm((384,), eps=1e-05, elementwise_affine=True)
        (out_proj): Linear(in_features=384, out_features=192, bias=False)
        (relu): ReLU()
        (att_ca): Conv2d(384, 768, kernel_size=(1, 1), stride=(1, 1), bias=False)
      )
      (drop_path): DropPath()
      (conv_blk): MlpFromMaIR(
        (fc1): Linear(in_features=192, out_features=288, bias=True)
        (act): GELU(approximate='none')
        (fc2): Linear(in_features=288, out_features=192, bias=True)
      )
      (ln_2): LayerNorm((192,), eps=1e-05, elementwise_affine=True)
    )
  )
  (down3_4): Downsample(
    (body): Sequential(
      (0): Conv2d(192, 96, kernel_size=(3, 3), stride=(1, 1), padding=(1, 1), bias=False)
      (1): PixelUnshuffle(downscale_factor=2)
    )
  )
  (latent): ModuleList(
    (0-7): 8 x RMB(
      (ln_1): LayerNorm((384,), eps=1e-05, elementwise_affine=True)
      (self_attention): VMM(
        (in_proj): Linear(in_features=384, out_features=1536, bias=False)
        (conv2d): Conv2d(768, 768, kernel_size=(3, 3), stride=(1, 1), padding=(1, 1), groups=768)
        (act): SiLU()
        (x_proj): Linear(in_features=768, out_features=56, bias=False)
        (dt_proj): Linear(in_features=24, out_features=768, bias=True)
        (out_norm): LayerNorm((768,), eps=1e-05, elementwise_affine=True)
        (out_proj): Linear(in_features=768, out_features=384, bias=False)
        (relu): ReLU()
        (att_ca): Conv2d(768, 1536, kernel_size=(1, 1), stride=(1, 1), bias=False)
      )
      (drop_path): DropPath()
      (conv_blk): MlpFromMaIR(
        (fc1): Linear(in_features=384, out_features=576, bias=True)
        (act): GELU(approximate='none')
        (fc2): Linear(in_features=576, out_features=384, bias=True)
      )
      (ln_2): LayerNorm((384,), eps=1e-05, elementwise_affine=True)
    )
  )
  (up4_3): Upsample(
    (body): Sequential(
      (0): Conv2d(384, 768, kernel_size=(3, 3), stride=(1, 1), padding=(1, 1), bias=False)
      (1): PixelShuffle(upscale_factor=2)
    )
  )
  (reduce_chan_level3): Conv2d(384, 192, kernel_size=(1, 1), stride=(1, 1), bias=False)
  (decoder_level3): ModuleList(
    (0-3): 4 x RMB(
      (ln_1): LayerNorm((192,), eps=1e-05, elementwise_affine=True)
      (self_attention): VMM(
        (in_proj): Linear(in_features=192, out_features=768, bias=False)
        (conv2d): Conv2d(384, 384, kernel_size=(3, 3), stride=(1, 1), padding=(1, 1), groups=384)
        (act): SiLU()
        (x_proj): Linear(in_features=384, out_features=44, bias=False)
        (dt_proj): Linear(in_features=12, out_features=384, bias=True)
        (out_norm): LayerNorm((384,), eps=1e-05, elementwise_affine=True)
        (out_proj): Linear(in_features=384, out_features=192, bias=False)
        (relu): ReLU()
        (att_ca): Conv2d(384, 768, kernel_size=(1, 1), stride=(1, 1), bias=False)
      )
      (drop_path): DropPath()
      (conv_blk): MlpFromMaIR(
        (fc1): Linear(in_features=192, out_features=288, bias=True)
        (act): GELU(approximate='none')
        (fc2): Linear(in_features=288, out_features=192, bias=True)
      )
      (ln_2): LayerNorm((192,), eps=1e-05, elementwise_affine=True)
    )
  )
  (up3_2): Upsample(
    (body): Sequential(
      (0): Conv2d(192, 384, kernel_size=(3, 3), stride=(1, 1), padding=(1, 1), bias=False)
      (1): PixelShuffle(upscale_factor=2)
    )
  )
  (reduce_chan_level2): Conv2d(192, 96, kernel_size=(1, 1), stride=(1, 1), bias=False)
  (decoder_level2): ModuleList(
    (0-3): 4 x RMB(
      (ln_1): LayerNorm((96,), eps=1e-05, elementwise_affine=True)
      (self_attention): VMM(
        (in_proj): Linear(in_features=96, out_features=384, bias=False)
        (conv2d): Conv2d(192, 192, kernel_size=(3, 3), stride=(1, 1), padding=(1, 1), groups=192)
        (act): SiLU()
        (x_proj): Linear(in_features=192, out_features=38, bias=False)
        (dt_proj): Linear(in_features=6, out_features=192, bias=True)
        (out_norm): LayerNorm((192,), eps=1e-05, elementwise_affine=True)
        (out_proj): Linear(in_features=192, out_features=96, bias=False)
        (relu): ReLU()
        (att_ca): Conv2d(192, 384, kernel_size=(1, 1), stride=(1, 1), bias=False)
      )
      (drop_path): DropPath()
      (conv_blk): MlpFromMaIR(
        (fc1): Linear(in_features=96, out_features=144, bias=True)
        (act): GELU(approximate='none')
        (fc2): Linear(in_features=144, out_features=96, bias=True)
      )
      (ln_2): LayerNorm((96,), eps=1e-05, elementwise_affine=True)
    )
  )
  (up2_1): Upsample(
    (body): Sequential(
      (0): Conv2d(96, 192, kernel_size=(3, 3), stride=(1, 1), padding=(1, 1), bias=False)
      (1): PixelShuffle(upscale_factor=2)
    )
  )
  (decoder_level1): ModuleList(
    (0-1): 2 x RMB(
      (ln_1): LayerNorm((96,), eps=1e-05, elementwise_affine=True)
      (self_attention): VMM(
        (in_proj): Linear(in_features=96, out_features=384, bias=False)
        (conv2d): Conv2d(192, 192, kernel_size=(3, 3), stride=(1, 1), padding=(1, 1), groups=192)
        (act): SiLU()
        (x_proj): Linear(in_features=192, out_features=38, bias=False)
        (dt_proj): Linear(in_features=6, out_features=192, bias=True)
        (out_norm): LayerNorm((192,), eps=1e-05, elementwise_affine=True)
        (out_proj): Linear(in_features=192, out_features=96, bias=False)
        (relu): ReLU()
        (att_ca): Conv2d(192, 384, kernel_size=(1, 1), stride=(1, 1), bias=False)
      )
      (drop_path): DropPath()
      (conv_blk): MlpFromMaIR(
        (fc1): Linear(in_features=96, out_features=144, bias=True)
        (act): GELU(approximate='none')
        (fc2): Linear(in_features=144, out_features=96, bias=True)
      )
      (ln_2): LayerNorm((96,), eps=1e-05, elementwise_affine=True)
    )
  )
  (refinement): ModuleList(
    (0-1): 2 x RMB(
      (ln_1): LayerNorm((96,), eps=1e-05, elementwise_affine=True)
      (self_attention): VMM(
        (in_proj): Linear(in_features=96, out_features=384, bias=False)
        (conv2d): Conv2d(192, 192, kernel_size=(3, 3), stride=(1, 1), padding=(1, 1), groups=192)
        (act): SiLU()
        (x_proj): Linear(in_features=192, out_features=38, bias=False)
        (dt_proj): Linear(in_features=6, out_features=192, bias=True)
        (out_norm): LayerNorm((192,), eps=1e-05, elementwise_affine=True)
        (out_proj): Linear(in_features=192, out_features=96, bias=False)
        (relu): ReLU()
        (att_ca): Conv2d(192, 384, kernel_size=(1, 1), stride=(1, 1), bias=False)
      )
      (drop_path): DropPath()
      (conv_blk): MlpFromMaIR(
        (fc1): Linear(in_features=96, out_features=144, bias=True)
        (act): GELU(approximate='none')
        (fc2): Linear(in_features=144, out_features=96, bias=True)
      )
      (ln_2): LayerNorm((96,), eps=1e-05, elementwise_affine=True)
    )
  )
  (output): Conv2d(96, 3, kernel_size=(3, 3), stride=(1, 1), padding=(1, 1), bias=False)
)
2025-11-22 16:44:09,044 INFO: Loading SparseMaIRUNet model from /data/lgl/codes/MambaIR/realDenoising/experiments/SparseMaIRUNet_small_LOLv1/models/net_g_76000.pth.
2025-11-22 16:44:09,443 INFO: Model [ImageCleanModel] is created.
2025-11-22 16:44:09,464 INFO: Resuming training from epoch: 6, iter: 76000.
2025-11-22 16:44:09,465 INFO: Start training from epoch: 6, iter: 76000
…
