…
2025-08-03 20:08:45,397 INFO: Dataset Dataset_PairedImage - TrainSet is created.
2025-08-03 20:08:45,397 INFO: Training statistics:
	Number of train images: 485
	Dataset enlarge ratio: 100
	Batch size per gpu: 1
	World size (gpu number): 4
	Require iter number per epoch: 12125
	Total epochs: 25; iters: 300000.
2025-08-03 20:08:45,398 INFO: Dataset Dataset_PairedImage - ValSet is created.
2025-08-03 20:08:45,398 INFO: Number of val images/folders in ValSet: 15
2025-08-03 20:08:46,312 INFO: Network: DistributedDataParallel - MambaIRv2UNet, with parameters: 25,208,408
2025-08-03 20:08:46,312 INFO: MambaIRv2UNet(
  (patch_embed): OverlapPatchEmbed(
    (proj): Conv2d(3, 48, kernel_size=(3, 3), stride=(1, 1), padding=(1, 1), bias=False)
  )
  (encoder_level1): ModuleList(
    (0-3): 4 x AttentiveVSSBlock(
      (ln_1): LayerNorm((48,), eps=1e-05, elementwise_affine=True)
      (self_attention): ASSM(
        (selectiveScan): Selective_Scan()
        (out_norm): LayerNorm((96,), eps=1e-05, elementwise_affine=True)
        (act): SiLU()
        (out_proj): Linear(in_features=96, out_features=48, bias=True)
        (in_proj): Sequential(
          (0): Conv2d(48, 96, kernel_size=(1, 1), stride=(1, 1))
        )
        (CPE): Sequential(
          (0): Conv2d(96, 96, kernel_size=(3, 3), stride=(1, 1), padding=(1, 1), groups=96)
        )
        (embeddingB): Embedding(64, 128)
        (route): Sequential(
          (0): Linear(in_features=48, out_features=16, bias=True)
          (1): GELU(approximate='none')
          (2): Linear(in_features=16, out_features=64, bias=True)
          (3): LogSoftmax(dim=-1)
        )
      )
      (drop_path): DropPath(drop_prob=0.000)
      (conv_blk): CAB(
        (cab): Sequential(
          (0): Conv2d(48, 16, kernel_size=(3, 3), stride=(1, 1), padding=(1, 1))
          (1): GELU(approximate='none')
          (2): Conv2d(16, 48, kernel_size=(3, 3), stride=(1, 1), padding=(1, 1))
          (3): ChannelAttention(
            (attention): Sequential(
              (0): AdaptiveAvgPool2d(output_size=1)
              (1): Conv2d(48, 1, kernel_size=(1, 1), stride=(1, 1))
              (2): ReLU(inplace=True)
              (3): Conv2d(1, 48, kernel_size=(1, 1), stride=(1, 1))
              (4): Sigmoid()
            )
          )
        )
      )
      (ln_2): LayerNorm((48,), eps=1e-05, elementwise_affine=True)
      (embeddingA): Embedding(128, 16)
    )
  )
  (down1_2): Downsample(
    (body): Sequential(
      (0): Conv2d(48, 24, kernel_size=(3, 3), stride=(1, 1), padding=(1, 1), bias=False)
      (1): PixelUnshuffle(downscale_factor=2)
    )
  )
  (encoder_level2): ModuleList(
    (0-5): 6 x AttentiveVSSBlock(
      (ln_1): LayerNorm((96,), eps=1e-05, elementwise_affine=True)
      (self_attention): ASSM(
        (selectiveScan): Selective_Scan()
        (out_norm): LayerNorm((192,), eps=1e-05, elementwise_affine=True)
        (act): SiLU()
        (out_proj): Linear(in_features=192, out_features=96, bias=True)
        (in_proj): Sequential(
          (0): Conv2d(96, 192, kernel_size=(1, 1), stride=(1, 1))
        )
        (CPE): Sequential(
          (0): Conv2d(192, 192, kernel_size=(3, 3), stride=(1, 1), padding=(1, 1), groups=192)
        )
        (embeddingB): Embedding(64, 128)
        (route): Sequential(
          (0): Linear(in_features=96, out_features=32, bias=True)
          (1): GELU(approximate='none')
          (2): Linear(in_features=32, out_features=64, bias=True)
          (3): LogSoftmax(dim=-1)
        )
      )
      (drop_path): DropPath(drop_prob=0.000)
      (conv_blk): CAB(
        (cab): Sequential(
          (0): Conv2d(96, 32, kernel_size=(3, 3), stride=(1, 1), padding=(1, 1))
          (1): GELU(approximate='none')
          (2): Conv2d(32, 96, kernel_size=(3, 3), stride=(1, 1), padding=(1, 1))
          (3): ChannelAttention(
            (attention): Sequential(
              (0): AdaptiveAvgPool2d(output_size=1)
              (1): Conv2d(96, 3, kernel_size=(1, 1), stride=(1, 1))
              (2): ReLU(inplace=True)
              (3): Conv2d(3, 96, kernel_size=(1, 1), stride=(1, 1))
              (4): Sigmoid()
            )
          )
        )
      )
      (ln_2): LayerNorm((96,), eps=1e-05, elementwise_affine=True)
      (embeddingA): Embedding(128, 16)
    )
  )
  (down2_3): Downsample(
    (body): Sequential(
      (0): Conv2d(96, 48, kernel_size=(3, 3), stride=(1, 1), padding=(1, 1), bias=False)
      (1): PixelUnshuffle(downscale_factor=2)
    )
  )
  (encoder_level3): ModuleList(
    (0-5): 6 x AttentiveVSSBlock(
      (ln_1): LayerNorm((192,), eps=1e-05, elementwise_affine=True)
      (self_attention): ASSM(
        (selectiveScan): Selective_Scan()
        (out_norm): LayerNorm((384,), eps=1e-05, elementwise_affine=True)
        (act): SiLU()
        (out_proj): Linear(in_features=384, out_features=192, bias=True)
        (in_proj): Sequential(
          (0): Conv2d(192, 384, kernel_size=(1, 1), stride=(1, 1))
        )
        (CPE): Sequential(
          (0): Conv2d(384, 384, kernel_size=(3, 3), stride=(1, 1), padding=(1, 1), groups=384)
        )
        (embeddingB): Embedding(64, 128)
        (route): Sequential(
          (0): Linear(in_features=192, out_features=64, bias=True)
          (1): GELU(approximate='none')
          (2): Linear(in_features=64, out_features=64, bias=True)
          (3): LogSoftmax(dim=-1)
        )
      )
      (drop_path): DropPath(drop_prob=0.000)
      (conv_blk): CAB(
        (cab): Sequential(
          (0): Conv2d(192, 64, kernel_size=(3, 3), stride=(1, 1), padding=(1, 1))
          (1): GELU(approximate='none')
          (2): Conv2d(64, 192, kernel_size=(3, 3), stride=(1, 1), padding=(1, 1))
          (3): ChannelAttention(
            (attention): Sequential(
              (0): AdaptiveAvgPool2d(output_size=1)
              (1): Conv2d(192, 6, kernel_size=(1, 1), stride=(1, 1))
              (2): ReLU(inplace=True)
              (3): Conv2d(6, 192, kernel_size=(1, 1), stride=(1, 1))
              (4): Sigmoid()
            )
          )
        )
      )
      (ln_2): LayerNorm((192,), eps=1e-05, elementwise_affine=True)
      (embeddingA): Embedding(128, 16)
    )
  )
  (down3_4): Downsample(
    (body): Sequential(
      (0): Conv2d(192, 96, kernel_size=(3, 3), stride=(1, 1), padding=(1, 1), bias=False)
      (1): PixelUnshuffle(downscale_factor=2)
    )
  )
  (latent): ModuleList(
    (0-7): 8 x AttentiveVSSBlock(
      (ln_1): LayerNorm((384,), eps=1e-05, elementwise_affine=True)
      (self_attention): ASSM(
        (selectiveScan): Selective_Scan()
        (out_norm): LayerNorm((768,), eps=1e-05, elementwise_affine=True)
        (act): SiLU()
        (out_proj): Linear(in_features=768, out_features=384, bias=True)
        (in_proj): Sequential(
          (0): Conv2d(384, 768, kernel_size=(1, 1), stride=(1, 1))
        )
        (CPE): Sequential(
          (0): Conv2d(768, 768, kernel_size=(3, 3), stride=(1, 1), padding=(1, 1), groups=768)
        )
        (embeddingB): Embedding(64, 128)
        (route): Sequential(
          (0): Linear(in_features=384, out_features=128, bias=True)
          (1): GELU(approximate='none')
          (2): Linear(in_features=128, out_features=64, bias=True)
          (3): LogSoftmax(dim=-1)
        )
      )
      (drop_path): DropPath(drop_prob=0.000)
      (conv_blk): CAB(
        (cab): Sequential(
          (0): Conv2d(384, 128, kernel_size=(3, 3), stride=(1, 1), padding=(1, 1))
          (1): GELU(approximate='none')
          (2): Conv2d(128, 384, kernel_size=(3, 3), stride=(1, 1), padding=(1, 1))
          (3): ChannelAttention(
            (attention): Sequential(
              (0): AdaptiveAvgPool2d(output_size=1)
              (1): Conv2d(384, 12, kernel_size=(1, 1), stride=(1, 1))
              (2): ReLU(inplace=True)
              (3): Conv2d(12, 384, kernel_size=(1, 1), stride=(1, 1))
              (4): Sigmoid()
            )
          )
        )
      )
      (ln_2): LayerNorm((384,), eps=1e-05, elementwise_affine=True)
      (embeddingA): Embedding(128, 16)
    )
  )
  (up4_3): Upsample(
    (body): Sequential(
      (0): Conv2d(384, 768, kernel_size=(3, 3), stride=(1, 1), padding=(1, 1), bias=False)
      (1): PixelShuffle(upscale_factor=2)
    )
  )
  (reduce_chan_level3): Conv2d(384, 192, kernel_size=(1, 1), stride=(1, 1), bias=False)
  (decoder_level3): ModuleList(
    (0-5): 6 x AttentiveVSSBlock(
      (ln_1): LayerNorm((192,), eps=1e-05, elementwise_affine=True)
      (self_attention): ASSM(
        (selectiveScan): Selective_Scan()
        (out_norm): LayerNorm((384,), eps=1e-05, elementwise_affine=True)
        (act): SiLU()
        (out_proj): Linear(in_features=384, out_features=192, bias=True)
        (in_proj): Sequential(
          (0): Conv2d(192, 384, kernel_size=(1, 1), stride=(1, 1))
        )
        (CPE): Sequential(
          (0): Conv2d(384, 384, kernel_size=(3, 3), stride=(1, 1), padding=(1, 1), groups=384)
        )
        (embeddingB): Embedding(64, 128)
        (route): Sequential(
          (0): Linear(in_features=192, out_features=64, bias=True)
          (1): GELU(approximate='none')
          (2): Linear(in_features=64, out_features=64, bias=True)
          (3): LogSoftmax(dim=-1)
        )
      )
      (drop_path): DropPath(drop_prob=0.000)
      (conv_blk): CAB(
        (cab): Sequential(
          (0): Conv2d(192, 64, kernel_size=(3, 3), stride=(1, 1), padding=(1, 1))
          (1): GELU(approximate='none')
          (2): Conv2d(64, 192, kernel_size=(3, 3), stride=(1, 1), padding=(1, 1))
          (3): ChannelAttention(
            (attention): Sequential(
              (0): AdaptiveAvgPool2d(output_size=1)
              (1): Conv2d(192, 6, kernel_size=(1, 1), stride=(1, 1))
              (2): ReLU(inplace=True)
              (3): Conv2d(6, 192, kernel_size=(1, 1), stride=(1, 1))
              (4): Sigmoid()
            )
          )
        )
      )
      (ln_2): LayerNorm((192,), eps=1e-05, elementwise_affine=True)
      (embeddingA): Embedding(128, 16)
    )
  )
  (up3_2): Upsample(
    (body): Sequential(
      (0): Conv2d(192, 384, kernel_size=(3, 3), stride=(1, 1), padding=(1, 1), bias=False)
      (1): PixelShuffle(upscale_factor=2)
    )
  )
  (reduce_chan_level2): Conv2d(192, 96, kernel_size=(1, 1), stride=(1, 1), bias=False)
  (decoder_level2): ModuleList(
    (0-5): 6 x AttentiveVSSBlock(
      (ln_1): LayerNorm((96,), eps=1e-05, elementwise_affine=True)
      (self_attention): ASSM(
        (selectiveScan): Selective_Scan()
        (out_norm): LayerNorm((192,), eps=1e-05, elementwise_affine=True)
        (act): SiLU()
        (out_proj): Linear(in_features=192, out_features=96, bias=True)
        (in_proj): Sequential(
          (0): Conv2d(96, 192, kernel_size=(1, 1), stride=(1, 1))
        )
        (CPE): Sequential(
          (0): Conv2d(192, 192, kernel_size=(3, 3), stride=(1, 1), padding=(1, 1), groups=192)
        )
        (embeddingB): Embedding(64, 128)
        (route): Sequential(
          (0): Linear(in_features=96, out_features=32, bias=True)
          (1): GELU(approximate='none')
          (2): Linear(in_features=32, out_features=64, bias=True)
          (3): LogSoftmax(dim=-1)
        )
      )
      (drop_path): DropPath(drop_prob=0.000)
      (conv_blk): CAB(
        (cab): Sequential(
          (0): Conv2d(96, 32, kernel_size=(3, 3), stride=(1, 1), padding=(1, 1))
          (1): GELU(approximate='none')
          (2): Conv2d(32, 96, kernel_size=(3, 3), stride=(1, 1), padding=(1, 1))
          (3): ChannelAttention(
            (attention): Sequential(
              (0): AdaptiveAvgPool2d(output_size=1)
              (1): Conv2d(96, 3, kernel_size=(1, 1), stride=(1, 1))
              (2): ReLU(inplace=True)
              (3): Conv2d(3, 96, kernel_size=(1, 1), stride=(1, 1))
              (4): Sigmoid()
            )
          )
        )
      )
      (ln_2): LayerNorm((96,), eps=1e-05, elementwise_affine=True)
      (embeddingA): Embedding(128, 16)
    )
  )
  (up2_1): Upsample(
    (body): Sequential(
      (0): Conv2d(96, 192, kernel_size=(3, 3), stride=(1, 1), padding=(1, 1), bias=False)
      (1): PixelShuffle(upscale_factor=2)
    )
  )
  (decoder_level1): ModuleList(
    (0-3): 4 x AttentiveVSSBlock(
      (ln_1): LayerNorm((96,), eps=1e-05, elementwise_affine=True)
      (self_attention): ASSM(
        (selectiveScan): Selective_Scan()
        (out_norm): LayerNorm((192,), eps=1e-05, elementwise_affine=True)
        (act): SiLU()
        (out_proj): Linear(in_features=192, out_features=96, bias=True)
        (in_proj): Sequential(
          (0): Conv2d(96, 192, kernel_size=(1, 1), stride=(1, 1))
        )
        (CPE): Sequential(
          (0): Conv2d(192, 192, kernel_size=(3, 3), stride=(1, 1), padding=(1, 1), groups=192)
        )
        (embeddingB): Embedding(64, 128)
        (route): Sequential(
          (0): Linear(in_features=96, out_features=32, bias=True)
          (1): GELU(approximate='none')
          (2): Linear(in_features=32, out_features=64, bias=True)
          (3): LogSoftmax(dim=-1)
        )
      )
      (drop_path): DropPath(drop_prob=0.000)
      (conv_blk): CAB(
        (cab): Sequential(
          (0): Conv2d(96, 32, kernel_size=(3, 3), stride=(1, 1), padding=(1, 1))
          (1): GELU(approximate='none')
          (2): Conv2d(32, 96, kernel_size=(3, 3), stride=(1, 1), padding=(1, 1))
          (3): ChannelAttention(
            (attention): Sequential(
              (0): AdaptiveAvgPool2d(output_size=1)
              (1): Conv2d(96, 3, kernel_size=(1, 1), stride=(1, 1))
              (2): ReLU(inplace=True)
              (3): Conv2d(3, 96, kernel_size=(1, 1), stride=(1, 1))
              (4): Sigmoid()
            )
          )
        )
      )
      (ln_2): LayerNorm((96,), eps=1e-05, elementwise_affine=True)
      (embeddingA): Embedding(128, 16)
    )
  )
  (refinement): ModuleList(
    (0-3): 4 x AttentiveVSSBlock(
      (ln_1): LayerNorm((96,), eps=1e-05, elementwise_affine=True)
      (self_attention): ASSM(
        (selectiveScan): Selective_Scan()
        (out_norm): LayerNorm((192,), eps=1e-05, elementwise_affine=True)
        (act): SiLU()
        (out_proj): Linear(in_features=192, out_features=96, bias=True)
        (in_proj): Sequential(
          (0): Conv2d(96, 192, kernel_size=(1, 1), stride=(1, 1))
        )
        (CPE): Sequential(
          (0): Conv2d(192, 192, kernel_size=(3, 3), stride=(1, 1), padding=(1, 1), groups=192)
        )
        (embeddingB): Embedding(64, 128)
        (route): Sequential(
          (0): Linear(in_features=96, out_features=32, bias=True)
          (1): GELU(approximate='none')
          (2): Linear(in_features=32, out_features=64, bias=True)
          (3): LogSoftmax(dim=-1)
        )
      )
      (drop_path): DropPath(drop_prob=0.000)
      (conv_blk): CAB(
        (cab): Sequential(
          (0): Conv2d(96, 32, kernel_size=(3, 3), stride=(1, 1), padding=(1, 1))
          (1): GELU(approximate='none')
          (2): Conv2d(32, 96, kernel_size=(3, 3), stride=(1, 1), padding=(1, 1))
          (3): ChannelAttention(
            (attention): Sequential(
              (0): AdaptiveAvgPool2d(output_size=1)
              (1): Conv2d(96, 3, kernel_size=(1, 1), stride=(1, 1))
              (2): ReLU(inplace=True)
              (3): Conv2d(3, 96, kernel_size=(1, 1), stride=(1, 1))
              (4): Sigmoid()
            )
          )
        )
      )
      (ln_2): LayerNorm((96,), eps=1e-05, elementwise_affine=True)
      (embeddingA): Embedding(128, 16)
    )
  )
  (output): Conv2d(96, 3, kernel_size=(3, 3), stride=(1, 1), padding=(1, 1), bias=False)
)
2025-08-03 20:08:46,322 INFO: Model [ImageCleanModel] is created.
2025-08-03 20:08:46,322 INFO: Start training from epoch: 0, iter: 0
2025-08-03 20:08:46,353 INFO: 
 Updating Patch_Size to 128 and Batch_Size to 32 

