…
2025-11-17 22:49:07,912 INFO: Dataset Dataset_PairedImage - TrainSet is created.
2025-11-17 22:49:07,913 INFO: Training statistics:
	Number of train images: 485
	Dataset enlarge ratio: 100
	Batch size per gpu: 1
	World size (gpu number): 4
	Require iter number per epoch: 12125
	Total epochs: 25; iters: 300000.
2025-11-17 22:49:07,914 INFO: Dataset Dataset_PairedImage - ValSet is created.
2025-11-17 22:49:07,915 INFO: Number of val images/folders in ValSet: 15
2025-11-17 22:49:10,419 INFO: Network: DistributedDataParallel - MaIRUNet, with parameters: 47,571,180
2025-11-17 22:49:10,419 INFO: MaIRUNet(
  (conv_first): Conv2d(3, 48, kernel_size=(3, 3), stride=(1, 1), padding=(1, 1))
  (patch_embed): PatchEmbed(
    (norm): LayerNorm((48,), eps=1e-05, elementwise_affine=True)
  )
  (encoder_level1): ModuleList(
    (0-1): 2 x RMB(
      (ln_1): LayerNorm((48,), eps=1e-05, elementwise_affine=True)
      (self_attention): VMM(
        (in_proj): Linear(in_features=48, out_features=192, bias=False)
        (conv2d): Conv2d(96, 96, kernel_size=(3, 3), stride=(1, 1), padding=(1, 1), groups=96)
        (act): SiLU()
        (out_norm): LayerNorm((96,), eps=1e-05, elementwise_affine=True)
        (out_proj): Linear(in_features=96, out_features=48, bias=False)
        (gating): ShuffleAttn(
          (gating): Sequential(
            (0): AdaptiveAvgPool2d(output_size=1)
            (1): Conv2d(384, 384, kernel_size=(1, 1), stride=(1, 1), groups=96)
            (2): Sigmoid()
          )
        )
      )
      (drop_path): DropPath()
      (conv_blk): FeedForwardMoE(
        (act): GELU(approximate='none')
        (project_in): Linear(in_features=48, out_features=72, bias=True)
        (experts): ModuleList(
          (0): Sequential(
            (0): Linear(in_features=72, out_features=72, bias=True)
            (1): GELU(approximate='none')
            (2): Linear(in_features=72, out_features=72, bias=True)
          )
          (1): Sequential(
            (0): Linear(in_features=72, out_features=57, bias=True)
            (1): GELU(approximate='none')
            (2): Linear(in_features=57, out_features=72, bias=True)
          )
          (2): Sequential(
            (0): Linear(in_features=72, out_features=86, bias=True)
            (1): GELU(approximate='none')
            (2): Linear(in_features=86, out_features=72, bias=True)
          )
        )
        (illum_to_logits): Linear(in_features=72, out_features=3, bias=True)
        (mix_proj): Sequential(
          (0): Linear(in_features=72, out_features=72, bias=True)
          (1): GELU(approximate='none')
        )
        (project_out): Linear(in_features=72, out_features=48, bias=True)
        (drop): Identity()
      )
      (ln_2): LayerNorm((48,), eps=1e-05, elementwise_affine=True)
    )
  )
  (down1_2): Downsample(
    (body): Sequential(
      (0): Conv2d(48, 24, kernel_size=(3, 3), stride=(1, 1), padding=(1, 1), bias=False)
      (1): PixelUnshuffle(downscale_factor=2)
    )
  )
  (encoder_level2): ModuleList(
    (0-3): 4 x RMB(
      (ln_1): LayerNorm((96,), eps=1e-05, elementwise_affine=True)
      (self_attention): VMM(
        (in_proj): Linear(in_features=96, out_features=384, bias=False)
        (conv2d): Conv2d(192, 192, kernel_size=(3, 3), stride=(1, 1), padding=(1, 1), groups=192)
        (act): SiLU()
        (out_norm): LayerNorm((192,), eps=1e-05, elementwise_affine=True)
        (out_proj): Linear(in_features=192, out_features=96, bias=False)
        (gating): ShuffleAttn(
          (gating): Sequential(
            (0): AdaptiveAvgPool2d(output_size=1)
            (1): Conv2d(768, 768, kernel_size=(1, 1), stride=(1, 1), groups=192)
            (2): Sigmoid()
          )
        )
      )
      (drop_path): DropPath()
      (conv_blk): FeedForwardMoE(
        (act): GELU(approximate='none')
        (project_in): Linear(in_features=96, out_features=144, bias=True)
        (experts): ModuleList(
          (0): Sequential(
            (0): Linear(in_features=144, out_features=144, bias=True)
            (1): GELU(approximate='none')
            (2): Linear(in_features=144, out_features=144, bias=True)
          )
          (1): Sequential(
            (0): Linear(in_features=144, out_features=115, bias=True)
            (1): GELU(approximate='none')
            (2): Linear(in_features=115, out_features=144, bias=True)
          )
          (2): Sequential(
            (0): Linear(in_features=144, out_features=172, bias=True)
            (1): GELU(approximate='none')
            (2): Linear(in_features=172, out_features=144, bias=True)
          )
        )
        (illum_to_logits): Linear(in_features=144, out_features=3, bias=True)
        (mix_proj): Sequential(
          (0): Linear(in_features=144, out_features=144, bias=True)
          (1): GELU(approximate='none')
        )
        (project_out): Linear(in_features=144, out_features=96, bias=True)
        (drop): Identity()
      )
      (ln_2): LayerNorm((96,), eps=1e-05, elementwise_affine=True)
    )
  )
  (down2_3): Downsample(
    (body): Sequential(
      (0): Conv2d(96, 48, kernel_size=(3, 3), stride=(1, 1), padding=(1, 1), bias=False)
      (1): PixelUnshuffle(downscale_factor=2)
    )
  )
  (encoder_level3): ModuleList(
    (0-3): 4 x RMB(
      (ln_1): LayerNorm((192,), eps=1e-05, elementwise_affine=True)
      (self_attention): VMM(
        (in_proj): Linear(in_features=192, out_features=768, bias=False)
        (conv2d): Conv2d(384, 384, kernel_size=(3, 3), stride=(1, 1), padding=(1, 1), groups=384)
        (act): SiLU()
        (out_norm): LayerNorm((384,), eps=1e-05, elementwise_affine=True)
        (out_proj): Linear(in_features=384, out_features=192, bias=False)
        (gating): ShuffleAttn(
          (gating): Sequential(
            (0): AdaptiveAvgPool2d(output_size=1)
            (1): Conv2d(1536, 1536, kernel_size=(1, 1), stride=(1, 1), groups=384)
            (2): Sigmoid()
          )
        )
      )
      (drop_path): DropPath()
      (conv_blk): FeedForwardMoE(
        (act): GELU(approximate='none')
        (project_in): Linear(in_features=192, out_features=288, bias=True)
        (experts): ModuleList(
          (0): Sequential(
            (0): Linear(in_features=288, out_features=288, bias=True)
            (1): GELU(approximate='none')
            (2): Linear(in_features=288, out_features=288, bias=True)
          )
          (1): Sequential(
            (0): Linear(in_features=288, out_features=230, bias=True)
            (1): GELU(approximate='none')
            (2): Linear(in_features=230, out_features=288, bias=True)
          )
          (2): Sequential(
            (0): Linear(in_features=288, out_features=345, bias=True)
            (1): GELU(approximate='none')
            (2): Linear(in_features=345, out_features=288, bias=True)
          )
        )
        (illum_to_logits): Linear(in_features=288, out_features=3, bias=True)
        (mix_proj): Sequential(
          (0): Linear(in_features=288, out_features=288, bias=True)
          (1): GELU(approximate='none')
        )
        (project_out): Linear(in_features=288, out_features=192, bias=True)
        (drop): Identity()
      )
      (ln_2): LayerNorm((192,), eps=1e-05, elementwise_affine=True)
    )
  )
  (down3_4): Downsample(
    (body): Sequential(
      (0): Conv2d(192, 96, kernel_size=(3, 3), stride=(1, 1), padding=(1, 1), bias=False)
      (1): PixelUnshuffle(downscale_factor=2)
    )
  )
  (latent): ModuleList(
    (0-7): 8 x RMB(
      (ln_1): LayerNorm((384,), eps=1e-05, elementwise_affine=True)
      (self_attention): VMM(
        (in_proj): Linear(in_features=384, out_features=1536, bias=False)
        (conv2d): Conv2d(768, 768, kernel_size=(3, 3), stride=(1, 1), padding=(1, 1), groups=768)
        (act): SiLU()
        (out_norm): LayerNorm((768,), eps=1e-05, elementwise_affine=True)
        (out_proj): Linear(in_features=768, out_features=384, bias=False)
        (gating): ShuffleAttn(
          (gating): Sequential(
            (0): AdaptiveAvgPool2d(output_size=1)
            (1): Conv2d(3072, 3072, kernel_size=(1, 1), stride=(1, 1), groups=768)
            (2): Sigmoid()
          )
        )
      )
      (drop_path): DropPath()
      (conv_blk): FeedForwardMoE(
        (act): GELU(approximate='none')
        (project_in): Linear(in_features=384, out_features=576, bias=True)
        (experts): ModuleList(
          (0): Sequential(
            (0): Linear(in_features=576, out_features=576, bias=True)
            (1): GELU(approximate='none')
            (2): Linear(in_features=576, out_features=576, bias=True)
          )
          (1): Sequential(
            (0): Linear(in_features=576, out_features=460, bias=True)
            (1): GELU(approximate='none')
            (2): Linear(in_features=460, out_features=576, bias=True)
          )
          (2): Sequential(
            (0): Linear(in_features=576, out_features=691, bias=True)
            (1): GELU(approximate='none')
            (2): Linear(in_features=691, out_features=576, bias=True)
          )
        )
        (illum_to_logits): Linear(in_features=576, out_features=3, bias=True)
        (mix_proj): Sequential(
          (0): Linear(in_features=576, out_features=576, bias=True)
          (1): GELU(approximate='none')
        )
        (project_out): Linear(in_features=576, out_features=384, bias=True)
        (drop): Identity()
      )
      (ln_2): LayerNorm((384,), eps=1e-05, elementwise_affine=True)
    )
  )
  (up4_3): Upsample(
    (body): Sequential(
      (0): Conv2d(384, 768, kernel_size=(3, 3), stride=(1, 1), padding=(1, 1), bias=False)
      (1): PixelShuffle(upscale_factor=2)
    )
  )
  (reduce_chan_level3): Conv2d(384, 192, kernel_size=(1, 1), stride=(1, 1), bias=False)
  (decoder_level3): ModuleList(
    (0-3): 4 x RMB(
      (ln_1): LayerNorm((192,), eps=1e-05, elementwise_affine=True)
      (self_attention): VMM(
        (in_proj): Linear(in_features=192, out_features=768, bias=False)
        (conv2d): Conv2d(384, 384, kernel_size=(3, 3), stride=(1, 1), padding=(1, 1), groups=384)
        (act): SiLU()
        (out_norm): LayerNorm((384,), eps=1e-05, elementwise_affine=True)
        (out_proj): Linear(in_features=384, out_features=192, bias=False)
        (gating): ShuffleAttn(
          (gating): Sequential(
            (0): AdaptiveAvgPool2d(output_size=1)
            (1): Conv2d(1536, 1536, kernel_size=(1, 1), stride=(1, 1), groups=384)
            (2): Sigmoid()
          )
        )
      )
      (drop_path): DropPath()
      (conv_blk): FeedForwardMoE(
        (act): GELU(approximate='none')
        (project_in): Linear(in_features=192, out_features=288, bias=True)
        (experts): ModuleList(
          (0): Sequential(
            (0): Linear(in_features=288, out_features=288, bias=True)
            (1): GELU(approximate='none')
            (2): Linear(in_features=288, out_features=288, bias=True)
          )
          (1): Sequential(
            (0): Linear(in_features=288, out_features=230, bias=True)
            (1): GELU(approximate='none')
            (2): Linear(in_features=230, out_features=288, bias=True)
          )
          (2): Sequential(
            (0): Linear(in_features=288, out_features=345, bias=True)
            (1): GELU(approximate='none')
            (2): Linear(in_features=345, out_features=288, bias=True)
          )
        )
        (illum_to_logits): Linear(in_features=288, out_features=3, bias=True)
        (mix_proj): Sequential(
          (0): Linear(in_features=288, out_features=288, bias=True)
          (1): GELU(approximate='none')
        )
        (project_out): Linear(in_features=288, out_features=192, bias=True)
        (drop): Identity()
      )
      (ln_2): LayerNorm((192,), eps=1e-05, elementwise_affine=True)
    )
  )
  (up3_2): Upsample(
    (body): Sequential(
      (0): Conv2d(192, 384, kernel_size=(3, 3), stride=(1, 1), padding=(1, 1), bias=False)
      (1): PixelShuffle(upscale_factor=2)
    )
  )
  (reduce_chan_level2): Conv2d(192, 96, kernel_size=(1, 1), stride=(1, 1), bias=False)
  (decoder_level2): ModuleList(
    (0-3): 4 x RMB(
      (ln_1): LayerNorm((96,), eps=1e-05, elementwise_affine=True)
      (self_attention): VMM(
        (in_proj): Linear(in_features=96, out_features=384, bias=False)
        (conv2d): Conv2d(192, 192, kernel_size=(3, 3), stride=(1, 1), padding=(1, 1), groups=192)
        (act): SiLU()
        (out_norm): LayerNorm((192,), eps=1e-05, elementwise_affine=True)
        (out_proj): Linear(in_features=192, out_features=96, bias=False)
        (gating): ShuffleAttn(
          (gating): Sequential(
            (0): AdaptiveAvgPool2d(output_size=1)
            (1): Conv2d(768, 768, kernel_size=(1, 1), stride=(1, 1), groups=192)
            (2): Sigmoid()
          )
        )
      )
      (drop_path): DropPath()
      (conv_blk): FeedForwardMoE(
        (act): GELU(approximate='none')
        (project_in): Linear(in_features=96, out_features=144, bias=True)
        (experts): ModuleList(
          (0): Sequential(
            (0): Linear(in_features=144, out_features=144, bias=True)
            (1): GELU(approximate='none')
            (2): Linear(in_features=144, out_features=144, bias=True)
          )
          (1): Sequential(
            (0): Linear(in_features=144, out_features=115, bias=True)
            (1): GELU(approximate='none')
            (2): Linear(in_features=115, out_features=144, bias=True)
          )
          (2): Sequential(
            (0): Linear(in_features=144, out_features=172, bias=True)
            (1): GELU(approximate='none')
            (2): Linear(in_features=172, out_features=144, bias=True)
          )
        )
        (illum_to_logits): Linear(in_features=144, out_features=3, bias=True)
        (mix_proj): Sequential(
          (0): Linear(in_features=144, out_features=144, bias=True)
          (1): GELU(approximate='none')
        )
        (project_out): Linear(in_features=144, out_features=96, bias=True)
        (drop): Identity()
      )
      (ln_2): LayerNorm((96,), eps=1e-05, elementwise_affine=True)
    )
  )
  (up2_1): Upsample(
    (body): Sequential(
      (0): Conv2d(96, 192, kernel_size=(3, 3), stride=(1, 1), padding=(1, 1), bias=False)
      (1): PixelShuffle(upscale_factor=2)
    )
  )
  (decoder_level1): ModuleList(
    (0-1): 2 x RMB(
      (ln_1): LayerNorm((96,), eps=1e-05, elementwise_affine=True)
      (self_attention): VMM(
        (in_proj): Linear(in_features=96, out_features=384, bias=False)
        (conv2d): Conv2d(192, 192, kernel_size=(3, 3), stride=(1, 1), padding=(1, 1), groups=192)
        (act): SiLU()
        (out_norm): LayerNorm((192,), eps=1e-05, elementwise_affine=True)
        (out_proj): Linear(in_features=192, out_features=96, bias=False)
        (gating): ShuffleAttn(
          (gating): Sequential(
            (0): AdaptiveAvgPool2d(output_size=1)
            (1): Conv2d(768, 768, kernel_size=(1, 1), stride=(1, 1), groups=192)
            (2): Sigmoid()
          )
        )
      )
      (drop_path): DropPath()
      (conv_blk): FeedForwardMoE(
        (act): GELU(approximate='none')
        (project_in): Linear(in_features=96, out_features=144, bias=True)
        (experts): ModuleList(
          (0): Sequential(
            (0): Linear(in_features=144, out_features=144, bias=True)
            (1): GELU(approximate='none')
            (2): Linear(in_features=144, out_features=144, bias=True)
          )
          (1): Sequential(
            (0): Linear(in_features=144, out_features=115, bias=True)
            (1): GELU(approximate='none')
            (2): Linear(in_features=115, out_features=144, bias=True)
          )
          (2): Sequential(
            (0): Linear(in_features=144, out_features=172, bias=True)
            (1): GELU(approximate='none')
            (2): Linear(in_features=172, out_features=144, bias=True)
          )
        )
        (illum_to_logits): Linear(in_features=144, out_features=3, bias=True)
        (mix_proj): Sequential(
          (0): Linear(in_features=144, out_features=144, bias=True)
          (1): GELU(approximate='none')
        )
        (project_out): Linear(in_features=144, out_features=96, bias=True)
        (drop): Identity()
      )
      (ln_2): LayerNorm((96,), eps=1e-05, elementwise_affine=True)
    )
  )
  (refinement): ModuleList(
    (0-1): 2 x RMB(
      (ln_1): LayerNorm((96,), eps=1e-05, elementwise_affine=True)
      (self_attention): VMM(
        (in_proj): Linear(in_features=96, out_features=384, bias=False)
        (conv2d): Conv2d(192, 192, kernel_size=(3, 3), stride=(1, 1), padding=(1, 1), groups=192)
        (act): SiLU()
        (out_norm): LayerNorm((192,), eps=1e-05, elementwise_affine=True)
        (out_proj): Linear(in_features=192, out_features=96, bias=False)
        (gating): ShuffleAttn(
          (gating): Sequential(
            (0): AdaptiveAvgPool2d(output_size=1)
            (1): Conv2d(768, 768, kernel_size=(1, 1), stride=(1, 1), groups=192)
            (2): Sigmoid()
          )
        )
      )
      (drop_path): DropPath()
      (conv_blk): FeedForwardMoE(
        (act): GELU(approximate='none')
        (project_in): Linear(in_features=96, out_features=144, bias=True)
        (experts): ModuleList(
          (0): Sequential(
            (0): Linear(in_features=144, out_features=144, bias=True)
            (1): GELU(approximate='none')
            (2): Linear(in_features=144, out_features=144, bias=True)
          )
          (1): Sequential(
            (0): Linear(in_features=144, out_features=115, bias=True)
            (1): GELU(approximate='none')
            (2): Linear(in_features=115, out_features=144, bias=True)
          )
          (2): Sequential(
            (0): Linear(in_features=144, out_features=172, bias=True)
            (1): GELU(approximate='none')
            (2): Linear(in_features=172, out_features=144, bias=True)
          )
        )
        (illum_to_logits): Linear(in_features=144, out_features=3, bias=True)
        (mix_proj): Sequential(
          (0): Linear(in_features=144, out_features=144, bias=True)
          (1): GELU(approximate='none')
        )
        (project_out): Linear(in_features=144, out_features=96, bias=True)
        (drop): Identity()
      )
      (ln_2): LayerNorm((96,), eps=1e-05, elementwise_affine=True)
    )
  )
  (output): Conv2d(96, 3, kernel_size=(3, 3), stride=(1, 1), padding=(1, 1), bias=False)
)
2025-11-17 22:49:10,438 INFO: Model [ImageCleanModel] is created.
2025-11-17 22:49:10,439 INFO: Start training from epoch: 0, iter: 0
2025-11-17 22:49:10,498 INFO: 
 Updating Patch_Size to 128 and Batch_Size to 32 

2025-11-17 23:10:39,012 INFO: [Mamba..][epoch:  0, iter:   1,000, lr:(3.000e-04,)] [eta: 4 days, 10:54:57, time (data): 1.218 (0.036)] l_pix: 1.0716e-01 
…
