…
	World size (gpu number): 4
	Require iter number per epoch: 12125
	Total epochs: 25; iters: 300000.
2025-08-02 22:45:47,656 INFO: Dataset Dataset_PairedImage - ValSet is created.
2025-08-02 22:45:47,657 INFO: Number of val images/folders in ValSet: 15
2025-08-02 22:45:47,657 INFO: Set pretrain_network_g to /data/lgl/codes/MambaIR/realDenoising/experiments/MambaIR_Enhancement_Illumination_Guided/models/net_g_32000.pth
2025-08-02 22:45:48,193 INFO: Network: DistributedDataParallel - MambaIRv2_Illumination, with parameters: 1,216,035
2025-08-02 22:45:48,193 INFO: MambaIRv2_Illumination(
  (conv_first): Conv2d(3, 48, kernel_size=(3, 3), stride=(1, 1), padding=(1, 1))
  (patch_embed): PatchEmbed(
    (norm): LayerNorm((48,), eps=1e-05, elementwise_affine=True)
  )
  (patch_unembed): PatchUnEmbed()
  (layers): ModuleList(
    (0-3): 4 x ASSB(
      (patch_embed): PatchEmbed()
      (patch_unembed): PatchUnEmbed()
      (residual_group): BasicBlock(
        dim=48, input_resolution=(64, 64), depth=6
        (layers): ModuleList(
          (0-5): 6 x AttentiveLayer(
            (softmax): Softmax(dim=-1)
            (lrelu): LeakyReLU(negative_slope=0.01)
            (sigmoid): Sigmoid()
            (norm1): LayerNorm((48,), eps=1e-05, elementwise_affine=True)
            (norm2): LayerNorm((48,), eps=1e-05, elementwise_affine=True)
            (norm3): LayerNorm((48,), eps=1e-05, elementwise_affine=True)
            (norm4): LayerNorm((48,), eps=1e-05, elementwise_affine=True)
            (wqkv): Linear(in_features=48, out_features=144, bias=True)
            (win_mhsa): WindowAttention(
              dim=48, window_size=(16, 16), num_heads=4, qkv_bias=True
              (proj): Linear(in_features=48, out_features=48, bias=True)
              (softmax): Softmax(dim=-1)
            )
            (assm): ASSM(
              (selectiveScan): Selective_Scan()
              (out_norm): LayerNorm((72,), eps=1e-05, elementwise_affine=True)
              (act): SiLU()
              (out_proj): Linear(in_features=72, out_features=48, bias=True)
              (in_proj): Sequential(
                (0): Conv2d(48, 72, kernel_size=(1, 1), stride=(1, 1))
              )
              (CPE): Sequential(
                (0): Conv2d(72, 72, kernel_size=(3, 3), stride=(1, 1), padding=(1, 1), groups=72)
              )
              (embeddingB): Embedding(64, 32)
              (route): Sequential(
                (0): Linear(in_features=49, out_features=16, bias=True)
                (1): GELU(approximate='none')
                (2): Linear(in_features=16, out_features=64, bias=True)
                (3): LogSoftmax(dim=-1)
              )
            )
            (convffn1): ConvFFN(
              (fc1): Linear(in_features=48, out_features=72, bias=True)
              (act): GELU(approximate='none')
              (dwconv): dwconv(
                (depthwise_conv): Sequential(
                  (0): Conv2d(72, 72, kernel_size=(5, 5), stride=(1, 1), padding=(2, 2), groups=72)
                  (1): GELU(approximate='none')
                )
              )
              (fc2): Linear(in_features=72, out_features=48, bias=True)
            )
            (convffn2): ConvFFN(
              (fc1): Linear(in_features=48, out_features=72, bias=True)
              (act): GELU(approximate='none')
              (dwconv): dwconv(
                (depthwise_conv): Sequential(
                  (0): Conv2d(72, 72, kernel_size=(5, 5), stride=(1, 1), padding=(2, 2), groups=72)
                  (1): GELU(approximate='none')
                )
              )
              (fc2): Linear(in_features=72, out_features=48, bias=True)
            )
            (embeddingA): Embedding(32, 8)
          )
        )
      )
      (conv): Conv2d(48, 48, kernel_size=(3, 3), stride=(1, 1), padding=(1, 1))
    )
  )
  (norm): LayerNorm((48,), eps=1e-05, elementwise_affine=True)
  (conv_after_body): Conv2d(48, 48, kernel_size=(3, 3), stride=(1, 1), padding=(1, 1))
  (conv_last): Conv2d(48, 3, kernel_size=(3, 3), stride=(1, 1), padding=(1, 1))
)
2025-08-02 22:45:48,193 INFO: Loading MambaIRv2_Illumination model from /data/lgl/codes/MambaIR/realDenoising/experiments/MambaIR_Enhancement_Illumination_Guided/models/net_g_32000.pth.
2025-08-02 22:45:48,329 INFO: Model [ImageCleanModel] is created.
2025-08-02 22:45:48,351 INFO: Resuming training from epoch: 1, iter: 32000.
2025-08-02 22:45:48,352 INFO: Start training from epoch: 1, iter: 32000
…
